cnn_model.pth (torch, 2673 bytes, 3 tensors)

conv.0.weight f4 [8, 1, 1, 2]
1.2184681 1.2773057 1.9527683 1.4348996 -3.393785 1.3103976 1.2913172 1.3079317
4.477338 0.11596226 1.0948604 1.1515057 0.10718641 -0.5261738 0.21361704 0.22447066
00000000: c3f6 9b3f c17e a33f 50f4 f93f caaa b73f
00000010: c633 59c0 1cbb a73f e249 a53f 4e6a a73f
00000020: 5a46 8f40 9f7d ed3d 6324 8c3f 8a64 933f
00000030: 8c84 db3d 53b3 06bf 6dbe 5a3e a3db 653e

conv.0.bias f4 [8]
-0.010333172 -0.20010072 -0.46214616 0.013268163 -4.4270315 -0.010819464 2.046887 -0.0019471694
00000000: 774c 29bc 34e7 4cbe 6c9e ecbe b662 593c
00000010: 3eaa 8dc0 1f44 31bc 3200 0340 2a38 ffba

fc.0.weight f4 [1, 8]
-1.4338017 -1.448324 -3.6515007 -1.2349738 3.840186 -1.3312019 1.8330982 -0.23620056
00000000: d086 b7bf ae62 b9bf 30b2 69c0 9f13 9ebf
00000010: 9cc5 7540 d364 aabf f6a2 ea3f 8fde 71be
