cnn_model.pth (torch, 2673 bytes, 3 tensors)

conv.0.weight f4 [8, 1, 1, 2]
0	0xc02836cf	-2.6283453
1	0xc0240a7d	-2.5631402
2	0xc09e02af	-4.9378276
3	0x3e5f017d	0.21777911
4	0x3f7070e7	0.93922275
5	0x3ffcb51c	1.974277
6	0x405cde50	3.4510689
7	0x400f7af9	2.2418807
8	0xbf3e0dc3	-0.7423975
9	0xbe1b99dd	-0.15195413
10	0x4095180d	4.659186
11	0xbf29ba3f	-0.66299814
12	0x3f7556ab	0.9583537
13	0x3f67c913	0.9054119
14	0xbd036f2f	-0.032088455
15	0x35d262d8	1.5674987e-06

conv.0.bias f4 [8]
0	0x404808f9	3.1255476
1	0x3f7fa49a	0.9986054
2	0x3f8d8337	1.1055669
3	0x3b882556	0.0041548414
4	0x3fbfa60d	1.497255
5	0xc0856cea	-4.169545
6	0x3f596fec	0.84936404
7	0xbd747415	-0.059681017

fc.0.weight f4 [1, 8]
0	0x40883671	4.2566457
1	0xc0a0b75b	-5.0223823
2	0x400fd56e	2.2474017
3	0xc0826467	-4.074756
4	0xbfb04fdd	-1.3774372
5	0x40bffdec	5.9997463
6	0x3faf7129	1.3706409
7	0x3bb2072b	0.0054329834
