mlp_model.pth (torch, 7917 bytes, 5 tensors)

net.0.weight f4 [32, 2]
00000000: 5910 a7b2 b552 f5b0 de30 4c3f 8720 f13e
00000010: 34e9 8dbe 64c6 28be 301a 05bf 10bb 8cbe
00000020: 1715 69bf de88 17c0 f8e9 ebbf b9a2 7abf
00000030: e69e 7c3f 7144 3bbe edd1 72bf 169a d2be
00000040: 62d5 313f 63a4 9dc0 f91b bcbd 9c9a f8be
00000050: c247 143e be48 bdbd b125 903f f066 5ebf
00000060: 2ec2 45be 6889 a2bf 857d 9bbf 4351 f53e
00000070: 0b9d b0be 37cf 54be 9996 00be b965 ed3e
00000080: 3b7f 2b3e e2bf 8ebf d41f 2fbf d2f1 3a3f
00000090: 67c8 1f3f d18e f93e 91ad 31bf b4d2 133f
000000a0: 7920 963f 7f75 d53e 6cb1 e53d 9cce 94be
000000b0: c872 e43e fb59 95bd 71aa de3e 0bfc 23be
000000c0: e2b7 9abf 7839 61bf 79be e9bf 2ea5 73bf
000000d0: 11c1 3fbe 91f8 7ebf 8578 4f3f 2623 32be
000000e0: db84 9f3f 0431 6abe 8052 423f 2d3c 193f
000000f0: 2d0b b7ae 2a92 07a6 c4fc 3ebf e3ca 08bf
-1.9448793e-08 -1.7849603e-09 0.79762065 0.4709513 -0.27716982 -0.1648193 -0.51993084 -0.27486467
-0.91047806 -2.3677287 -1.8430777 -0.97904545 0.9867996 -0.18287827 -0.9485157 -0.41133183
0.6946622 -4.9263167 -0.09185023 -0.48555458 0.14480498 -0.0924239 1.1261503 -0.8687582
-0.19312355 -1.2698183 -1.214768 0.4791356 -0.34494814 -0.20782171 -0.12557448 0.4636667
0.16747753 -1.1152308 -0.6840794 0.7302524 0.62415165 0.48741773 -0.69405466 0.5774338
1.172866 0.41691205 0.11215481 -0.2906388 0.4461882 -0.07292553 0.4348941 -0.16014116
-1.2087367 -0.87978315 -1.8261253 -0.9517392 -0.18725993 -0.9959803 0.81043273 -0.1739622
1.2462419 -0.2287026 0.75907135 0.59857446 -8.323862e-11 -4.7035623e-16 -0.7460444 -0.5343458

net.0.bias f4 [32]
00000000: 02bf a8b7 83f4 76bd ee2c acbd 126c 25be
00000010: 547a 643f 55c4 2c3d 6812 48bf f048 9e3f
00000020: 55c5 86bf db46 6f3e 576d 003e 3669 413f
00000030: 8e02 583f 9f91 c3bd 3e07 c5bd 25e3 113f
00000040: 8307 3d3c b900 e8be ddd1 533d deb2 b7be
00000050: 13b0 7abf 3d14 fa3d ac5a 563e d5a2 853c
00000060: cff6 793f 679d 0e3d 8e46 f53e 365b 23bf
00000070: 7fc2 79bf 5445 0e3e efcb 53b9 0fe8 143f
-2.0116106e-05 -0.06029178 -0.08407007 -0.16154507 0.8924916 0.042179424 -0.78153086 1.2366009
-1.0528971 0.23366873 0.1254171 0.75551164 0.843789 -0.095492594 -0.09620522 0.5698722
0.011537435 -0.4531305 0.051713813 -0.35878652 -0.9792492 0.122108914 0.20933026 0.016312996
0.97642225 0.03481808 0.4790539 -0.6381105 -0.975624 0.13893634 -0.00020198499 0.58166593

net.2.weight f4 [32, 32]
00000000: 34f4 3c21 7f2b 6aba 83b0 07bb 44b4 22bb
00000010: 1b57 be3c fedb 66bc 25ba 933c 5232 713d
00000020: aa80 093d b120 a7bb 3b0d 973b 019e 1e3d
00000030: fe70 91bc 55fb ebbb f8d4 19bb 8822 0dbc
00000040: 5930 c8bc 676c dbbb 955f cbbb 3609 a8bb
00000050: 5573 8c3c 3b25 863a b6a9 ae3a 31c8 013b
00000060: 9e8e c03c aa92 53bc 5bee 27bc c6ea 5f3c
00000070: 3659 cc3c 206e 5ebc 1d43 329e 7667 563c
00000080: d017 9b22 9440 f03d ae5c ce38 9f88 263a
00000090: b362 a6be 47ca b83d 2e3b b0be 7226 cdbe
000000a0: aa56 fcbe f6b2 fb3d 31f9 f43d 2e9d 25be
000000b0: 40d4 cc3e fef3 d03d 83fa 7439 d136 c13e
000000c0: 9d6c 903e 8b63 0f3e 8c23 3b3e 9fc9 e53d
000000d0: 1eb0 a2be 8616 20b9 78dd 663e 4ddd 8f3c
000000e0: e4f5 8bbe 933f 7d3d ac28 913e 859d 88be
000000f0: 7fd1 e2be 6299 913e dbe0 ab25 b7ae 19be
00000100: 3942 5b22 630d 37bd 8db5 29bd ab18 a0bd
00000110: b053 b43e 9fc5 75be ea04 9a3e 77ba 033f
00000120: 6104 293f f0ca e3bc 68ba 6d3d 94f4 b33e
00000130: a1d8 5fbe 08eb 07be a57b 4cbd 3a4b d4bd
00000140: e3e2 7dbe 23be 16be 2cb9 e9bd 1029 e3bd
00000150: f216 913e d28d d73c 9870 4c3c e2cb cf3c
00000160: 5109 9e3e 9a6f 56be e2f0 2dbe 33fb 6e3e
00000170: 6e6c c83e f8b8 1abe f005 c221 f41d 3c3e
00000180: a370 d422 d5a7 6fbd 0b97 70bd c18d e2bd
00000190: 1ce1 f93e 06bf a8be d336 d23e 7854 343f
000001a0: a43a 673f 7888 d0bc 001a 7f3d 1a45 ef3e
000001b0: 778c 8bbe ed34 4fbe d384 91bd 01bc 60be
000001c0: a5c3 89be 4971 54be 700b 2bbe 5928 23be
000001d0: 116d cc3e c668 123d 925d 6f3c ab02 1d3d
000001e0: c7e7 eb3e 790f 96be c4eb 6cbe 5114 a43e
000001f0: 79dd 093f 669a 4ebe 1b33 40a4 30fd 8b3e
00000200: 8428 2f22 843a f13d 8115 2e37 4a65 f538
00000210: 7a43 9fbe 5561 9c3d 6e31 a9be 35bb cebe
00000220: c5dd f1be 544e 0c3e 8a89 e23d 392c 1abe
00000230: b25b c53e e9a0 b23d b4b6 2838 46bc be3e
00000240: 60a1 903e 3e9f 043e d1c6 4f3e bfed d13d
00000250: f4b9 9abe d921 aeb9 e6d1 423e 86fd e63c
00000260: 1fef 7fbe 71f2 2e3d cbcd 8a3e 58eb 82be
00000270: 81d1 dcbe bd24 853e 5c23 bf21 2339 18be
00000280: 9341 fd21 79cf c23d ee66 5738 7467 c238
00000290: 154a 82be 7489 7f3d 7dfc 85be ebfe a4be
000002a0: e364 c0be f568 c53d 15d7 b63d 1fb0 19be
000002b0: d749 983e 1d0b 503d 3d9f 0639 b7e9 8e3e
000002c0: aaa2 823e a5cf cd3d 289c 243e bda8 a03d
000002d0: 2cca 71be d9eb 1abb bbec 2e3e 97fb 6c3c
000002e0: 6049 5ebe 7e06 1d3d e929 513e 1aae 4ebe
000002f0: 5ae7 aebe 2dbe 4e3e da2a 92a0 d3ce f7bd
00000300: 539c 85a2 f0be 6dbd d130 22bd bac0 97bd
00000310: 9ff8 af3e c8ce 6ebe b999 953e bd8f fe3e
00000320: b11c 243f 830c e9bc a0b7 8d3d 48ba b13e
00000330: f4fd 56be c8ff 02be 408c 44bd 1591 24be
00000340: e657 6fbe d63e 12be 5e16 01be ffce dbbd
00000350: 17b1 8c3e 13b8 cf3c 2eaa 473d d0c6 a03c
00000360: 15e3 9e3e 18e5 4fbe d18e 28be dc44 683e
00000370: afff c23e 0ce0 2bbe ae99 3524 3a32 393e
00000380: 7d6e 4ca1 c789 043e da59 523d 684b c13d
00000390: 1268 21be b06b b93e 4e88 abbe 0e40 cabe
000003a0: 3c74 11bf a2b6 0f3e 3e29 f43d df78 43be
000003b0: 0326 e03e 9f03 293e 2806 803d 8f6d 713e
000003c0: 0a78 a93e 3675 373e 8cbc 4a3e 1a48 0a3e
000003d0: e82d 98be fa66 97ba f719 263e 840c a13c
000003e0: 9403 3ebe 0803 a73e c0c0 ab3e 44d9 83be
000003f0: fe85 dfbe 3035 8f3e b973 8f20 9935 d1bd
6.402008e-19 -0.0008932873 -0.0020704574 -0.0024826685 0.023234894 -0.014090536 0.018033097 0.05888588
0.03356997 -0.0051003327 0.0046097315 0.038724903 -0.017754074 -0.007201592 -0.0023472887 -0.00861419
-0.024437116 -0.006696272 -0.0062064626 -0.005128051 0.017144838 0.0010234484 0.0013325724 0.0019803161
0.023505505 -0.012913385 -0.0102496995 0.013666814 0.024944883 -0.0135760605 -9.43712e-21 0.01308619
4.2038047e-18 0.11731067 9.8401084e-05 0.00063527556 -0.32497177 0.09022956 -0.3442015 -0.40068394
-0.4928487 0.122899935 0.11961592 -0.1617324 0.40005684 0.10202788 0.00023362976 0.37737134
0.28207865 0.14002816 0.18275279 0.11220097 -0.31774992 -0.0001526718 0.22545421 0.01756158
-0.27336037 0.061828207 0.28351343 -0.26682678 -0.44300458 0.28437334 2.981614e-16 -0.15008055
2.9715092e-18 -0.0446905 -0.041432906 -0.07817205 0.35220098 -0.24001168 0.30081874 0.514564
0.66022307 -0.02780673 0.0580391 0.35147536 -0.21859981 -0.13273251 -0.049922604 -0.10365911
-0.24793582 -0.14720969 -0.11412272 -0.110918164 0.28337818 0.026312742 0.012478016 0.025365774
0.30866483 -0.2094101 -0.16986421 0.23338012 0.39145225 -0.15109622 1.3147523e-18 0.18370801
5.7581974e-18 -0.058509666 -0.058737796 -0.11062194 0.48804557 -0.3295824 0.41057453 0.7044139
0.90323853 -0.025455698 0.062280655 0.46732408 -0.27255604 -0.20235033 -0.07105412 -0.21946718
-0.26907077 -0.2074634 -0.16703582 -0.1593336 0.3992696 0.03574445 0.014609711 0.038332622
0.4607527 -0.2930868 -0.23136812 0.3204675 0.53853565 -0.20176086 -4.167665e-17 0.27341604
2.3738371e-18 0.11778739 1.0376215e-05 0.00011701377 -0.31106168 0.07635752 -0.33045524 -0.40377203
-0.4723951 0.13701755 0.1106139 -0.15055932 0.3854652 0.087220974 4.0224477e-05 0.37253016
0.2824812 0.12951371 0.20290686 0.102504246 -0.30219996 -0.00033213085 0.19025382 0.028197061
-0.24993561 0.04271168 0.27110133 -0.25570178 -0.4312859 0.26004592 1.2952023e-18 -0.14865546
1.7161304e-18 0.095122285 5.1355855e-05 9.2699105e-05 -0.25447145 0.062386945 -0.26169196 -0.32225737
-0.3757697 0.096391596 0.089277424 -0.15008591 0.29743835 0.05079185 0.00012838557 0.27912685
0.25514728 0.10049371 0.16075194 0.07844684 -0.23612279 -0.0023639111 0.17082493 0.014464281
-0.21707678 0.03833627 0.20426144 -0.20183602 -0.34160882 0.20189734 -2.476172e-19 -0.120999955
-3.6215237e-18 -0.05804342 -0.039597336 -0.074098065 0.3436937 -0.23321068 0.29218844 0.4971904
0.6410628 -0.028448349 0.06919789 0.34712434 -0.20995313 -0.12792885 -0.047985315 -0.1607097
-0.23373374 -0.14281783 -0.12606189 -0.10732841 0.2747886 0.025356328 0.04874628 0.019626051
0.31032625 -0.20302236 -0.1646073 0.22682518 0.38085696 -0.16784686 3.937829e-17 0.18085566
-6.926412e-19 0.12943183 0.05135522 0.09438211 -0.15762356 0.36214972 -0.3350243 -0.39501995
-0.56817985 0.14034513 0.11921929 -0.19089077 0.43779 0.16505288 0.06251174 0.2357695
0.33099395 0.17915806 0.19798487 0.13504067 -0.29722524 -0.0011551075 0.16220842 0.019659288
-0.18556052 0.326195 0.33545494 -0.25751698 -0.43656915 0.27970266 2.430172e-19 -0.10215301

net.2.bias f4 [32]
00000000: 8227 04bd 4f31 fb3e ab52 2abe 195b 02be
00000010: f515 e83e 6cfe e33e 5842 a0bd 3132 f03e
00000020: f895 19ba 2a1a 97bc bfca bfb9 4032 bfbd
00000030: 73b9 ec3e 2dd7 86b6 8f9e 79b4 506f 7cbb
00000040: 9f29 91ba 5d86 d2bd 6448 71b7 37d5 d23c
00000050: a58d b13e 6800 943e 75c6 bbbc d8f0 023f
00000060: bfb2 8b3e 3027 413e e1c8 00b3 6bae 3bb7
00000070: 3cad c2b8 931f 15b5 4c52 54af 567a bf3e
-0.03226424 0.49061057 -0.16633098 -0.12730063 0.45329252 0.44530046 -0.07825154 0.46913293
-0.0005858834 -0.018445093 -0.00036581416 -0.09335756 0.46235237 -4.018561e-06 -2.3247615e-07 -0.0038518496
-0.0011075026 -0.10279534 -1.4381574e-05 0.025736434 0.3467838 0.2890656 -0.02292178 0.5114875
0.2728481 0.18862605 -2.998502e-08 -1.1186678e-05 -9.282908e-05 -5.555277e-07 -1.9310525e-10 0.37398022

net.4.weight f4 [1, 32]
00000000: 2416 503d b64b 8bbf 0081 713f 6e19 a93f
00000010: 3cff 84bf a01a 4ebf 0eda 693f 91a6 8fbf
00000020: ee3c 36bb 25d0 0a3d e4b8 aabc a29f 933f
00000030: d122 87bf 2f2d c13b 296e f5bc a596 6fb9
00000040: 4dd6 cf3a 9cac 873f 3b4d 91b5 feb3 813d
00000050: 0cd7 19bf 8b18 ffbe 116e 16c0 b0c3 92bf
00000060: e7ec a740 2b7d 14c0 4a0f 07a4 7f63 e4b7
00000070: 64b9 33bc e3bb 14bc 33b0 80ba 5fc4 73bf
0.050802365 -1.088248 0.94337463 1.3210886 -1.0390391 -0.80509377 0.9134835 -1.1222707
-0.0027807313 0.03388991 -0.020840116 1.1533091 -1.05575 0.005895279 -0.029959755 -0.00022848936
0.0015856713 1.0599551 -1.0825819e-06 0.06333159 -0.6009376 -0.49823412 -2.350468 -1.1465969
5.2476687 -2.3201396 -2.928641e-17 -2.722605e-05 -0.010969494 -0.009077999 -0.0009818136 -0.95221514
