mlp_model.pth (torch, 7853 bytes, 5 tensors)

net.0.weight f4 [32, 2]
00000000: 9ea2 48bf ecf8 2a3f d25a 07be da0e fc3c
00000010: f8b3 f53d 0a97 cabf dd5e 973f 3cda 71bc
00000020: a453 afbc 72a6 8d3e 879e 803f f3bd a9bd
00000030: de00 513f 3604 83bf 8eb5 4ebd 50bf 00bd
00000040: 8c37 ae3f 847f 7cbe 159b 50bf 11c8 87be
00000050: ad04 9e3e 0dda 043d b566 713f 2e01 e7bd
00000060: 67e1 2f3f 113c 06bf 2183 4abe e8d4 753e
00000070: 85ed 3abe dc2f 4a3e 4c60 91bf abfb 53be
00000080: 904e 35be 59d2 6d3d 3b20 673f 452f 513f
00000090: 0438 32bf 121f 5ebe fdb9 c23e af04 cdbe
000000a0: e62b f7be 6bd4 77bf 3788 fa3d b95b aebe
000000b0: 2242 97bf 0aa1 9c3f d879 39c0 55f8 c6be
000000c0: b22f 93bf 72df a2bc 1ddd 2e3f df3b a1bd
000000d0: bcf5 b7bc 95ea 1d3e 0bf5 143e 6042 bd3e
000000e0: 08af ff3c 476d b53f 9211 97bf 1780 85bf
000000f0: 06cb 0ebf 5189 443c 9df2 be3c 312a f23e
-0.78373134 0.66786075 -0.13218239 0.0307688 0.11997217 -1.5827343 1.1825825 -0.014761504
-0.021402188 0.2766605 1.0048379 -0.08288183 0.8164195 -1.023566 -0.050466113 -0.03143245
1.3610702 -0.24658018 -0.81486636 -0.26519826 0.30862942 0.032434512 0.94297343 -0.11279522
0.6870331 -0.52435404 -0.19776584 0.24006999 -0.18254669 0.1974482 -1.1357512 -0.20701472
-0.1770575 0.05806193 0.90283555 0.8171275 -0.69616723 -0.2169154 0.38032523 -0.40042636
-0.4827568 -0.968085 0.12233012 -0.34054354 -1.1817057 1.2236645 -2.8980618 -0.38861337
-1.149893 -0.019881938 0.6830614 -0.07872748 -0.022456042 0.15421517 0.14546601 0.36964703
0.031211391 1.4173974 -1.1802237 -1.0429715 -0.5577854 0.011995629 0.023309046 0.47297814

net.0.bias f4 [32]
00000000: 12bc eabe 526d e83e 154d 5e3f 55b6 99bf
00000010: 690c a03e d96d c43e a25f 8f3e ec5e 313e
00000020: 4583 82bf 27e0 5f3c 4ff4 303e 98e2 7dbf
00000030: d239 9a3e 3683 033f 0691 e63e 4612 be3f
00000040: 7cf7 b13e e28e 803e 74a4 1f3c a77a 0e3f
00000050: 7fe9 473f 086c ff3e 790b 853e 6bc9 963e
00000060: 3961 babe a00b 8d3e efc6 ee3d e9f9 863e
00000070: c4a8 e8be 32ce 923e c03f 3fbe 03ec b23e
-0.4584661 0.45395905 0.8683637 -1.2008768 0.31259468 0.38365057 0.2800265 0.17321366
-1.019631 0.013664282 0.17280696 -0.9917388 0.30122238 0.51372087 0.4503252 1.4849327
0.34759128 0.2510901 0.0097437985 0.556559 0.7809066 0.4988711 0.25985315 0.29450545
-0.364023 0.27547932 0.11659037 0.2636254 -0.45441258 0.2867294 -0.18676662 0.34945688

net.2.weight f4 [32, 32]
00000000: d46b 86be fc93 163d 273d b3bd 277a b5be
00000010: ff19 b83d 12b9 a03e 65ce 44be f707 e03a
00000020: f1d5 ccbe 59a4 0a3e 8a9e 203e d15f 80be
00000030: 8bed c83d 95c9 f7bc 40f8 803d 726c aebe
00000040: 82f1 0ebd 34f6 673e 1d7a ff3d 8d97 1e3e
00000050: c883 5bbe 45ff 303d ad4d c33e 25da 463e
00000060: 9c69 563e 0e06 683e f67e f5bb e614 123e
00000070: 0f48 ac3e 242d a93e a03a bb3d 83ac 3c3d
00000080: d2ef 86be 0f3a 633c e44c 00bd 701a bdbe
00000090: 308f 023d 160e a33e d558 a4bd 00c9 973c
000000a0: f0ac c5be 3e16 193e f049 cf3d 7467 91be
000000b0: 7586 073d 0399 1d3e c3cd 07bd 4edf a1be
000000c0: e184 3ebd 5398 c13e 8d9f 043e 6a98 993d
000000d0: 124d 2ebe b455 a0bc fa91 cb3e 0f8b 643e
000000e0: b1dc 893e 63a1 6c3e 7544 99bc 40ad 063e
000000f0: 15b5 d33e bbec b03e c289 c43d 7d2c 8b3c
00000100: e847 4e3e 2b46 b13d 0581 ca3d 9cf7 6e3e
00000110: 7af5 a93d e4c7 3bbe 2f7b 2d3e b039 073c
00000120: 3b01 9c3e c3b3 c5bd d79d 83bc c1e9 3d3e
00000130: 0fa6 913c 4fcb f53d 5133 893d d4a7 b63e
00000140: 973b 593d 7d48 1ebe 86de aebd 8f01 213c
00000150: aff7 eb3d 34c1 d63c 9f78 51be 1949 f8bd
00000160: 1193 07be f73d fcbd 300b 173d 90da ab3d
00000170: 24a5 92be cf84 64be f354 7cbd f319 d23d
00000180: d4ef a8be c91c 60ba 2a4a 93bd 8e4a d6be
00000190: bb1b 1d3c eb97 c93e b17f 50be 2b8a 703c
000001a0: e2b6 fdbe a717 443e 86da d03d 6d93 9ebe
000001b0: 3317 173c b9fe 6abd e607 d0bc fdaf d5be
000001c0: 3577 f7bc de43 8f3e e431 243e caa8 043e
000001d0: adb2 33be b996 ed3c ea2e f13e abc4 7c3e
000001e0: 5547 813e d6cf 8a3e df85 cdbb 66e9 6e3d
000001f0: d3ba e13e f9dd da3e a3c5 f03d baa8 e93d
00000200: 96aa ab3c dcd2 693c c5a5 8abf 6aab 4b97
00000210: fe41 1abe ea77 abbc 3993 dcbc e766 023c
00000220: 18e9 4897 30b1 9c3e a102 bcbd 0ece 0217
00000230: fcf7 17be f915 5bbd 4f07 14bd 6a1a ff3e
00000240: 28ba be3c d419 17bd b186 833e d04f 65bd
00000250: 7185 6b3d d5d7 d23c 6ed6 d6bd c092 fc3e
00000260: 67a7 c73e 4e64 d03c 73c3 aabd d70d 89be
00000270: 8337 333e 56fb 393f 0409 413e 27fa 5dbe
00000280: 6b20 75bf c2d1 83be a52d 14c0 1ef6 0a3f
00000290: 938c 063c 47f1 123e 1036 b13f edb2 a5bd
000002a0: 3fcd a33f 80a2 281b edfe 9fbc f5f6 c13e
000002b0: b819 63bf 7f25 5abd 5e51 5bbe 6897 3bbc
000002c0: afa1 3ebe abc4 883e da4b c99c 3a80 6dbe
000002d0: f79c d33f 33db 7fbe 0380 5a3f f490 6ac0
000002e0: 0f02 8819 e45f 753d b78f 03bd e923 cc3d
000002f0: 20c1 2e3d 41f8 1318 e173 479c 5f5f ef3d
00000300: 4671 843e 095b 2a3e e5f2 133e 1fdb cc3e
00000310: 7e8c f03d b3d8 84be d692 513d 4763 563d
00000320: d997 653e 21a5 14be cf49 623d 2a6f 583e
00000330: a4f7 ebbc 9fb1 973d c913 463e 2fba c43e
00000340: 741d d53d 3887 c7bd 93db eabd 9940 173e
00000350: 10ca 983e a4f2 473e 6236 8abe afae 3ebe
00000360: 6a25 29be e0d9 3abe 5064 513d d8aa 973d
00000370: 8e42 aabe f927 9cbe eda9 aebd d483 0cbd
00000380: 6bbe a898 96a2 29bb 3d28 5f38 e066 c836
00000390: 6776 08bd 7b68 1837 e483 cd37 1ab4 d035
000003a0: 7a74 7537 3523 c0ba 7a4f 38bb ee2f ce36
000003b0: 3752 58b8 e406 5f3a 1c51 8bbd 5495 d6bc
000003c0: 8807 1532 fe56 91bc c7f5 1b9a 4163 1937
000003d0: 2e08 f0b8 f827 5536 17b1 c716 aa93 0c39
000003e0: 3c59 c9ba 8ed7 a037 c35c 15bc b350 42bd
000003f0: b84d afbc 2b5f 3498 1b95 1897 a26e ecbc
-0.2625414 0.036762223 -0.08751898 -0.35444757 0.08989333 0.31391197 -0.19219358 0.0017092217
-0.40006974 0.13539256 0.15685478 -0.25073102 0.09810933 -0.030247489 0.0629735 -0.34067112
-0.03489829 0.22652513 0.12474463 0.154875 -0.2143699 0.043212194 0.381452 0.19419153
0.20938724 0.2265856 -0.0074919416 0.14265785 0.33648726 0.33042252 0.09142041 0.046062957
-0.26354843 0.013868823 -0.03132333 -0.36934233 0.031874835 0.31846684 -0.08024756 0.018528461
-0.38608503 0.14949891 0.10121524 -0.2839924 0.033087213 0.153904 -0.033155214 -0.3161568
-0.046513442 0.37811527 0.12951489 0.07499774 -0.17021587 -0.019572116 0.3975981 0.22318672
0.26926187 0.23108439 -0.0187094 0.13152027 0.41349092 0.3455561 0.09596588 0.016988987
0.20144618 0.086559616 0.0988789 0.23336643 0.08298774 -0.18337971 0.16941522 0.0082535
0.3046969 -0.096534275 -0.016066475 0.18546201 0.017779378 0.12001669 0.06699241 0.35674918
0.053035345 -0.1545734 -0.08538537 0.009827032 0.11521851 0.026215173 -0.2045617 -0.12123317
-0.13239695 -0.12316506 0.036875904 0.08391297 -0.28641617 -0.22316287 -0.06160445 0.10258856
-0.32995474 -0.0008549211 -0.0719188 -0.41853756 0.009589131 0.39373717 -0.2036121 0.014681379
-0.4955359 0.19149648 0.1019793 -0.30971852 0.00922184 -0.05737183 -0.025394391 -0.4173583
-0.03020821 0.27981466 0.16034657 0.12955013 -0.17548628 0.029002534 0.47106105 0.24684398
0.25249735 0.2711169 -0.006272062 0.058328055 0.44087848 0.42747477 0.11756446 0.11409135
0.020955365 0.014271464 -1.0831839 -6.5809193e-25 -0.15064237 -0.020931203 -0.02692567 0.007959104
-6.491769e-25 0.30603933 -0.09180189 4.2265343e-25 -0.14840692 -0.05348775 -0.036139783 0.4982484
0.023282126 -0.036889866 0.256887 -0.05598432 0.057500307 0.025737682 -0.10490118 0.4933071
0.38994905 0.025438454 -0.0833806 -0.2676837 0.17501645 0.72649133 0.18851095 -0.21677457
-0.9575259 -0.2574597 -2.315286 0.54281795 0.008212226 0.14349853 1.3844624 -0.08090768
1.2797011 1.3949141e-22 -0.019530738 0.37883726 -0.8871112 -0.053258415 -0.21417758 -0.011449672
-0.18616365 0.26712546 -1.3320671e-21 -0.23193446 1.6532277 -0.24985962 0.8535158 -3.6650972
1.4062902e-23 0.0599059 -0.03211948 0.09967787 0.042664647 1.912464e-24 -6.5993347e-22 0.116881125
0.2586767 0.1663629 0.14448126 0.40010926 0.11745547 -0.25946578 0.051165424 0.052340772
0.22421207 -0.14516117 0.05524617 0.21136156 -0.028804608 0.074069254 0.19343485 0.38423297
0.10406008 -0.09742588 -0.11467662 0.14770736 0.2984166 0.19526154 -0.26994616 -0.18621324
-0.16518179 -0.18247175 0.051121056 0.07405633 -0.33253902 -0.30499247 -0.085285045 -0.03430541
-4.3619255e-24 -0.0025884262 5.3204818e-05 5.9724407e-06 -0.033316042 9.084232e-06 2.449932e-05 1.5549624e-06
1.4630257e-05 -0.001465893 -0.0028123544 6.144858e-06 -5.157498e-05 0.00085078017 -0.0680258 -0.026194252
8.674654e-09 -0.017741676 -3.2251786e-23 9.14262e-06 -0.000114456154 3.1762738e-06 3.2261943e-25 0.0001340645
-0.0015361677 1.9173862e-05 -0.009116354 -0.047440242 -0.021399364 -2.3312502e-24 -4.9302046e-25 -0.028861348

net.2.bias f4 [32]
00000000: b9e1 1e3e 27f8 6d3d 7d32 073e a1f7 2f3e
00000010: ef2e ccbd e345 15be edc3 123e 1d08 0e3d
00000020: f628 be3d 097c e6ad 9721 893d d839 063e
00000030: 9664 2c3e 76c0 7bbe 2181 e6ba fe3a 843d
00000040: bd29 003e c2f3 58bc 49f0 0f3c 635d 223e
00000050: 5338 5a3e 60a3 283a 19c9 dd3d a57d 873b
00000060: f59b 523e e427 0e3e 408d 5a3e d001 993d
00000070: ba67 fa3d ba83 0a3d 2cc4 e93d 9408 84b7
0.15515794 0.058097985 0.13202854 0.17184307 -0.099698894 -0.14577441 0.14332552 0.034675706
0.092851564 -2.6203055e-11 0.0669586 0.13108003 0.16835245 -0.24585137 -0.0017586091 0.06456564
0.12515922 -0.01324171 0.008785316 0.15855937 0.21310548 0.0006433036 0.10829372 0.004134851
0.20567305 0.13882405 0.21342945 0.07471049 0.122268155 0.03381703 0.1141437 -1.573962e-05

net.4.weight f4 [1, 32]
00000000: eab5 3abf 95ff 43bf 27e9 fa3e fa0f 72bf
00000010: 1213 bfbf f5ee ad40 c682 2c3f 3c69 f43c
00000020: 88aa 30bf 88fe 0baf d892 cbbe 459b 853f
00000030: 4d98 ed3e faa1 ae3f 9df9 29bf 089f f33e
00000040: 1d49 30bf 4476 2ebf feaa 24bf 04e6 713f
00000050: 5707 333f 9e33 323c 5209 1f3f a8a5 1cbf
00000060: 8b8e 8f3f 55e0 efbe 1c47 833f f055 41bf
00000070: ddd8 4b3f 9fca 2abf c5cc 03bf 8735 7bbb
-0.7293383 -0.7656186 0.49006006 -0.9455563 -1.4927695 5.4354196 0.67387044 0.029835336
-0.6901021 -1.2732404e-10 -0.3976047 1.043801 0.4640526 1.3643181 -0.66396505 0.4758227
-0.6886156 -0.6814921 -0.64323413 0.944916 0.69933075 0.010876564 0.62123597 -0.6119027
1.1215376 -0.4685084 1.0256076 -0.75521755 0.7962778 -0.66715425 -0.5148433 -0.0038331465
