mlp_model.pth (torch, 7917 bytes, 5 tensors)

net.0.weight f4 [32, 2]
000000 24 64 39 3f 47 b8 1e 3f e1 27 d0 3e 9e cd be 3e
       0.7241843 0.61999935 0.40655425 0.37266248
000010 89 6e 2e 3c fd a7 6c 3d 1a 84 9e bf 52 a0 1e 3f
       0.010646471 0.057777394 -1.2384064 0.6196338
000020 17 ce 4a 3f 13 23 11 3d 76 0f 65 3f d3 90 83 3e
       0.7922072 0.03543384 0.89476717 0.2569643
000030 c9 3e 8a 3d c5 d2 81 bc cb e8 63 3d e2 dd cc bc
       0.067502566 -0.015847573 0.05564193 -0.025008146
000040 f5 70 a1 3d cf 54 ba bc 22 c4 86 3d 6d e6 3a bf
       0.07882873 -0.022745518 0.06580378 -0.7300785
000050 db f3 4a 3d 42 06 03 bf ae fd a5 bf 52 95 2e 3f
       0.049548965 -0.51181424 -1.2968042 0.68196595
000060 1c 5b b0 bf bb 9c 86 bf 0b 82 5c bf 05 23 90 be
       -1.3777804 -1.051658 -0.8613593 -0.28151718
000070 db 0e a9 3d 3f 81 a9 bd d9 9e cf 3d de 19 37 bd
       0.082547866 -0.08276605 0.1013772 -0.044702403
000080 76 87 3d 3f d3 cf a3 be c3 3d 9d bf d6 61 1e 3f
       0.7403482 -0.31994495 -1.2284473 0.61868036
000090 3b b2 4f 3e 79 1b 49 3e 06 09 0e 3f c9 c0 23 3e
       0.20282833 0.19639386 0.5548252 0.1599151
0000a0 92 9a a1 3d b3 26 95 bd d3 a0 39 3f 44 73 1b 3f
       0.0789081 -0.07282772 0.72511023 0.60722756
0000b0 f6 e8 ec 3d d7 f6 90 bd 15 21 72 3f 31 1a 0e 3e
       0.11567871 -0.07078331 0.9458173 0.13877179
0000c0 9e 75 4c 3f f2 15 b2 be 83 e4 81 be 96 ec 0b be
       0.7986697 -0.34782368 -0.25369653 -0.13664469
0000d0 fd ae e0 bd 75 a0 89 3e ac d8 ad 3e 4e a8 55 3e
       -0.10970876 0.26880231 0.3395437 0.20864984
0000e0 b3 2a e1 3c 0c 56 1e bc 84 76 6c 3d 14 ed 88 bc
       0.02748618 -0.00966407 0.057730213 -0.01671461
0000f0 a6 bb 80 bf 68 24 ca 3c 11 72 1d 3f 9f d5 88 be
       -1.0057266 0.024675563 0.61502177 -0.2672548

net.0.bias f4 [32]
000000 70 9e 92 3d a2 64 04 3d b4 8e aa 3d a7 03 85 bd
       0.07159126 0.032322533 0.08328 -0.06494837
000010 e0 f1 11 bf f2 b0 88 bf fb 66 08 3e 6d fa cc 3d
       -0.57009697 -1.0679 0.13320534 0.100087024
000020 47 dd fa 3d 1b a8 09 3e cd b3 be 3d ac fc a9 bd
       0.122492366 0.13443033 0.09311638 -0.083001465
000030 96 1a 5b be fe 89 82 3f 48 1c 87 3e c6 93 36 3e
       -0.2139686 1.0198362 0.26388764 0.17829809
000040 e0 9a 22 bf c2 83 88 bd 52 f2 03 3d 39 25 28 bf
       -0.6351757 -0.06665756 0.032213517 -0.656818
000050 c1 12 11 3e 0e 46 a7 3d 9a 21 50 3e e4 7a 90 bf
       0.1416731 0.08167659 0.20325318 -1.1287503
000060 3e 72 30 bf e6 15 8e 3d 10 77 61 bc 06 73 c4 bd
       -0.6892432 0.069377705 -0.013761297 -0.095922515
000070 42 4e 45 3d a7 49 c1 3d 8c 30 1b 3f 8c ea 07 bf
       0.048170336 0.09437876 0.6062095 -0.53092265

net.2.weight f4 [32, 32]
000000 10 6c 5b 3b 3a 45 ba 3a c1 a3 4b ba 0e 54 83 3c
       0.0033481158 0.0014211305 -0.00077682367 0.016031291
000010 87 88 5a bb 9c 5b fd ba 1a 73 36 bb bd 8b ea ba
       -0.0033345537 -0.001932967 -0.0027839602 -0.0017894428
000020 ec 3a 35 bb 7d f6 07 3b 53 78 b2 3a 02 27 8c 3c
       -0.0027653528 0.0020746284 0.0013616182 0.017108444
000030 64 bf ae 3c 99 c9 c1 3b e4 cd 69 bb 94 fd 55 bb
       0.021331497 0.005913925 -0.00356757 -0.0032652365
000040 02 0e ac ba ca 30 82 3c cd 77 26 3a 3f 3d c1 ba
       -0.0013126733 0.015892405 0.0006350249 -0.0014742984
000050 71 0f 25 bb d3 b3 41 3b 72 30 76 bb ee 63 e4 ba
       -0.0025186206 0.0029556646 -0.0037565497 -0.0017424801
000060 cf 85 bf ba 2e b0 73 3b de 0d 0d 3b ea 50 68 3a
       -0.0014612022 0.0037183869 0.0021523158 0.0008862155
000070 26 ac 69 ba d8 71 e4 ba f3 1a 28 3c ff d8 a4 ba
       -0.0008913897 -0.0017428948 0.010260331 -0.0012576877
000080 f8 ff 93 37 06 fc 29 37 93 e9 6a 35 c4 db a2 37
       1.764296e-05 1.0131864e-05 8.751169e-07 1.9414241e-05
000090 d4 3e 5b b7 44 79 a8 b7 fa 36 42 35 8d bd 89 35
       -1.30680455e-05 -2.008363e-05 7.2350633e-07 1.0262462e-06
0000a0 fe 1c 27 35 cf 7a ad b6 1c 0d 47 b7 df 42 eb 37
       6.225454e-07 -5.1700986e-06 -1.1864377e-05 2.8045322e-05
0000b0 e5 3e fb 37 a1 77 65 b7 79 3b 27 37 b0 07 23 36
       2.995082e-05 -1.3677317e-05 9.967823e-06 2.4293367e-06
0000c0 d5 f8 4a b7 ad 8a d5 37 62 48 a4 36 0b a3 50 b7
       -1.2098074e-05 2.5456155e-05 4.8960073e-06 -1.24357275e-05
0000d0 b3 7c ba 35 6b f5 9c 37 b2 a7 ca 35 ff 2b ac b7
       1.3894372e-06 1.871093e-05 1.5098979e-06 -2.0524485e-05
0000e0 87 a2 34 b7 50 6d 96 36 e0 b4 28 b6 30 e0 f5 36
       -1.0766677e-05 4.483074e-06 -2.5139234e-06 7.327668e-06
0000f0 c5 5a c3 34 5b b0 6a 36 3e b8 7a b6 91 92 11 b7
       3.6387624e-07 3.497137e-06 -3.7360146e-06 -8.676799e-06
000100 66 50 1d 3e 05 a0 a3 3d a0 2c 8c 3c 18 db 2a 3e
       0.15362701 0.07989506 0.017111123 0.1668514
000110 3c a5 f6 bd 16 aa 34 be a1 13 d6 3b a6 80 bd 3b
       -0.12043235 -0.17643008 0.0065331017 0.0057831584
000120 4c fd 1a 3c c7 89 98 bd 67 03 57 bd 6a d6 34 3e
       0.009459805 -0.07448154 -0.05249348 0.17659917
000130 cb 38 71 3e 19 46 f8 bd 17 11 5f 3c 08 19 cb 3b
       0.23556821 -0.12122745 0.013614914 0.0061980523
000140 ae 62 f6 bd df bf 29 3e ee 4b 8b 3d 4c 17 da bd
       -0.120305404 0.165771 0.06801592 -0.10648975
000150 8c e3 f6 3b 10 e4 0e 3e ca 13 2a 3c b3 03 3d be
       0.00753445 0.13954186 0.010380695 -0.18458442
000160 6a b5 05 be 3d 62 28 3d c5 89 b0 bc a2 8e 58 3d
       -0.13057485 0.041109312 -0.021550069 0.0528704
000170 f0 0b 45 3b 31 be 96 3b 0c 65 0c be 02 f3 cb bd
       0.003006693 0.0046003093 -0.13710421 -0.099584594
000180 da 14 29 3f c9 a6 c4 3e 51 67 fd 3c 46 3c 49 3f
       0.6604744 0.38408497 0.030933054 0.78607595
000190 5c c3 0d bf 8e 59 4c bf dd e4 4b 3d 47 e5 0f 3d
       -0.5537622 -0.7982415 0.049778808 0.035130765
0001a0 36 ae 3b 3d 08 e4 ad be c7 d9 75 be ed 2a 55 3f
       0.045820437 -0.33963037 -0.24008857 0.83268625
0001b0 ff d9 8b 3f 0f 4e 10 bf 08 b3 a8 3d 31 c6 77 3d
       1.0925902 -0.5636911 0.082372725 0.060491744
0001c0 b3 9f 0d bf 06 e1 47 3f 23 5e 3e 3e b0 96 fa be
       -0.55321807 0.78077734 0.18590598 -0.4894309
0001d0 ab c7 3b 3d cc ef 28 3f 5e f1 89 3d ad bf 57 bf
       0.045844715 0.659909 0.0673549 -0.8427685
0001e0 4c 8f 1a bf 48 6e 40 3e d9 6a f9 bd 57 53 80 3e
       -0.60374904 0.18792069 -0.12178583 0.25063583
0001f0 8f 0c 90 3c 0e f5 04 3d 02 f5 21 bf f0 58 ec be
       0.017584113 0.032460265 -0.6326448 -0.46161604
000200 7c 38 25 bc fe 87 a0 bb 7e c0 be 3a e3 09 7f bd
       -0.010084268 -0.004899024 0.0014553217 -0.062265288
000210 77 00 d3 3c 44 50 1f 3d e6 b8 c4 3b ac 41 52 3b
       0.025757058 0.038894907 0.006003487 0.00320826
000220 9d e3 c5 3b a0 9c c5 3c 60 ce 8c 3c b7 a1 8d bd
       0.0060390965 0.024122536 0.017188251 -0.0691561
000230 b2 37 99 bc 03 33 68 3d 40 19 44 3c f4 7c f2 3b
       -0.018703315 0.056689274 0.011968911 0.0074001495
000240 ca 93 e1 3c c7 52 84 bd 24 19 6c bb 30 80 c2 3c
       0.027536292 -0.06461101 -0.0036025727 0.023742765
000250 f6 28 02 3c 63 d6 4d bc 2d a9 16 3c 78 16 20 3d
       0.007944336 -0.012563321 0.009195608 0.039083928
000260 f9 7e f3 3c ed 29 a5 bb 71 bf b3 ba 97 e0 53 bc
       0.029723631 -0.0050403983 -0.001371367 -0.012931964
000270 25 e9 1b 3b f7 4a 35 3b 09 84 17 3d e8 59 ba 3c
       0.0023790088 0.002766309 0.036991153 0.022747949
000280 d8 1b 9f 35 2b c6 29 af cc c2 09 b3 47 f5 73 17
       1.1854527e-06 -1.5440864e-10 -3.2074965e-08 7.882712e-25
000290 b1 0e 88 97 00 a1 ac 17 2f 42 71 36 3c 2e 91 1d
       -8.792503e-25 1.1155882e-24 3.5950322e-06 3.8428986e-21
0002a0 53 e1 92 b6 65 7e 5b 98 b6 2d 02 17 56 b4 2c 18
       -4.3773703e-06 -2.83689e-24 4.206296e-25 2.2321525e-24
0002b0 77 e5 4a 17 33 a0 36 98 f0 52 cb 17 79 cf 9f 9f
       6.5559346e-25 -2.3603829e-24 1.3139504e-24 -6.7682354e-20
0002c0 10 6a 07 98 81 49 16 98 48 95 e3 37 4b ea 74 16
       -1.7501889e-24 -1.9424156e-24 2.7130023e-05 1.9784093e-25
0002d0 d1 e5 0f a4 cb 06 5a b0 58 73 fe 1c 2a 71 17 98
       -3.1202844e-17 -7.931759e-10 1.6838126e-21 -1.9573426e-24
0002e0 68 1b 6c 17 fa e9 ba 18 2b ca 21 b4 b4 bc c0 9b
       7.6290304e-25 4.831613e-24 -1.5067842e-07 -3.1885682e-22
0002f0 57 3c 8a af 71 9c d3 1c bf cf 3b 98 7d 36 b0 96
       -2.5144928e-10 1.4003248e-21 -2.4274068e-24 -2.846872e-25
000300 90 da 3d 3e f2 19 bc 3d b1 78 8c 3c df ed 45 3e
       0.18540406 0.09184636 0.017147394 0.19329022
000310 2a f9 0e be 08 1d 51 be 53 5d 65 3c 22 1d cd 3b
       -0.13962236 -0.20421231 0.013999301 0.0062595764
000320 a9 a9 bf 3b b6 c5 b1 bd 0a d8 7a bd 56 94 51 3e
       0.0058490825 -0.086802885 -0.061241187 0.20466742
000330 5c 9a 8b 3e de 02 13 be 72 16 53 3c fb e1 8d 3b
       0.27266204 -0.14356562 0.012883769 0.0043299175
000340 c0 d8 0e be 13 a5 44 3e 14 b0 4f 3d bf 0c fd bd
       -0.13949871 0.19203596 0.05070503 -0.12355947
000350 93 2e 05 3c 3c 80 25 3e fe 70 35 3c de 4c 5b be
       0.00812878 0.16162199 0.011074303 -0.21416041
000360 fd ff 1a be 62 74 4b 3d dc 34 8a bb be da 77 3d
       -0.15136714 0.04967154 -0.004217727 0.060511343
000370 9e 5a 56 3b fd e9 b9 3b b2 7f 23 be 6f dd ec bd
       0.003270782 0.0056736455 -0.1596668 -0.115656726
000380 53 43 d2 3d 03 7e 51 3d 3f 65 9b 3c f2 43 26 bf
       0.10266747 0.051145565 0.018969176 -0.64947426
000390 f6 24 8f 3e f8 14 ce 3e 11 f7 7a 3d 27 38 43 3d
       0.27957886 0.40250373 0.061270777 0.047660973
0003a0 be 4a 7f 3d 09 e4 98 3e ec 57 52 3e 21 0a 31 bf
       0.06232714 0.29861477 0.20541352 -0.6915608
0003b0 93 6b b5 bd e3 64 dc 3e d3 93 df 3d 29 0b af 3d
       -0.08858409 0.4304572 0.10916867 0.085470505
0003c0 b8 a6 93 3e b5 24 26 bf 88 6d d0 3c 56 64 80 3e
       0.28838134 -0.6489976 0.025442854 0.2507655
0003d0 aa a5 94 3d 27 a0 db 3d a1 e5 cc 3d 86 ff d9 3e
       0.072581604 0.10723906 0.10004736 0.4257776
0003e0 73 9f a0 3e 08 39 bc bd 94 f4 6d 3c f7 5b f9 bd
       0.3137165 -0.09190565 0.014523644 -0.12175744
0003f0 ce 10 c3 3c 4b 93 39 3d 3d d4 90 3e e5 52 76 3e
       0.023811724 0.045306485 0.28286925 0.24055059

net.2.bias f4 [32]
000000 ab 45 37 bc e7 01 11 37 ce 42 46 3d ec 29 58 3e
       -0.011186044 8.643116e-06 0.048403554 0.21109742
000010 db f7 c8 3c ce 98 26 b9 77 6b 7a 3d 21 b2 68 3e
       0.02453225 -0.00015887918 0.061137643 0.22724201
000020 55 c9 7d 3d c0 03 37 3e 80 c2 99 3e c7 77 24 3e
       0.061959583 0.17872524 0.30031204 0.16061316
000030 55 f1 be b9 3d a8 05 3e 12 78 53 3d 61 84 cf 3d
       -0.0003641943 0.13052459 0.05162818 0.10132671
000040 df a2 3e 3d 2a d0 2b 3d be ec 50 3d e5 48 57 3d
       0.046542045 0.041946568 0.051007025 0.052559752
000050 aa eb b6 bc 02 75 2a 3d 39 8f 1d 3e ba 3e 69 bc
       -0.02232917 0.041615494 0.15386666 -0.014236147
000060 1a da fe 3d c5 85 e2 3d 99 f2 f4 28 d3 f8 5c b0
       0.12443943 0.11060671 2.7194652e-14 -8.0389134e-10
000070 96 00 91 3d 7d cc 44 ac d1 b3 af ba 93 92 78 3d
       0.0708019 -2.796679e-12 -0.001340503 0.06068666

net.4.weight f4 [1, 32]
000000 23 16 58 bd 1c 1d 97 b8 74 ed 1e bf f0 21 37 c0
       -0.052755486 -7.205663e-05 -0.62081075 -2.8614464
000010 3e b2 0e 3e ff 96 7e 36 24 21 38 bf dd ad bc 3f
       0.13935181 3.793684e-06 -0.7192557 1.4740559
000020 f7 54 41 bf 88 1f 8f 3f 13 9c f6 3f 8b e6 7a 3f
       -0.7552027 1.1181498 1.926638 0.9800803
000030 e6 2b d3 b9 a1 6d 5c 3f ea a9 20 bf 5f 3d 24 3f
       -0.00040277763 0.8610478 -0.6275927 0.64156145
000040 b4 1e 23 bf 3d 58 03 bf 3e cf 20 bf c5 4a 28 bf
       -0.63718724 -0.51306516 -0.62816226 -0.6573909
000050 25 3c 2e be c3 e6 f6 be e3 25 7b 3f 9d ec a9 bd
       -0.17015131 -0.48222932 0.98104686 -0.082970835
000060 2a 51 4d 3f 6b cd 34 3f 3b a2 41 29 ef cd 6f b2
       0.8020197 0.7062594 4.299532e-14 -1.3958455e-08
000070 cc bf 5d bf 83 be 5d ba 86 c8 ad b7 11 6c 33 bf
       -0.86620784 -0.00084588694 -2.0716583e-05 -0.7008677
